voice_detector.pth (torch, 791139 bytes, 3 tensors)

net.0.weight f4 [256, 768]
-0.02618418 -0.012549549 -0.006379597 0.0074840337 -0.035997257 -0.012768948 0.0028022565 -0.02338352
-0.0073588155 0.021832936 0.032908157 -0.0035172962 -0.019581027 0.013888564 0.01859165 -0.029662386
0.026469678 -0.0039777793 -0.026607186 0.014214728 -0.013976896 -0.010488061 0.029054984 -0.0033842735
0.033020444 0.0037106983 -0.0013134889 0.00030655414 -0.029463863 0.010100771 0.034777068 -0.0017688796
-0.02121624 -0.0014667064 0.03272122 0.022984926 -0.0022282787 0.021270469 0.031158246 0.011338819
-0.025469763 0.0021652319 0.015282586 0.017740525 0.023617812 -0.023194985 -0.03310384 -0.018997077
-0.020313172 -0.03268508 0.011160903 -0.028181858 0.01727987 -0.011308031 0.023951318 -0.027257841
-0.012983507 0.025142733 0.009916317 0.032398112 -0.010308424 -0.019947479 -0.01173334 -0.02416623
-0.0043215826 -0.004217189 -0.027456967 0.029327214 -0.017723981 -0.004522398 -0.026775615 0.007603485
0.031087518 -0.015861617 -0.017905788 0.035292044 -0.022580594 -0.021794498 0.013201393 0.023254648
-0.027750693 0.03165605 -0.016758574 0.033484593 -0.02166269 -0.019759826 0.000941623 0.029928327
0.02231092 -0.007513957 -0.029738385 0.032841213 0.0280497 0.016245965 -0.016679408 -0.0062479023
0.03395147 0.017445948 0.025034312 -0.01234171 0.026585966 0.035471708 0.02770143 0.022379149
0.03541828 0.016121767 0.0050862245 0.025713854 0.02797497 0.029292993 0.028459541 0.034527875
0.032085717 0.009207543 -0.015630575 -0.032585114 -0.01945576 0.01598826 0.019787483 0.030568816
-0.011644283 -0.035062805 0.0062739924 -0.027312756 -0.021115303 0.009793509 0.016513202 -0.01905255
-0.0131364465 -0.025618281 0.00062450394 0.014499556 0.032045685 0.0010060556 0.01746289 -0.019043263
-0.009123046 0.004702132 -0.00097291917 -0.0049785543 0.0113643855 -0.028685063 -0.002035711 -0.0133617725
-0.032338604 -0.030650917 0.0060057007 -0.014704434 0.0051801875 -0.014389139 0.0154200755 -0.012827059
0.008968789 0.029378146 -0.024130737 -0.010026226 -0.010599434 0.0130905695 0.033213668 -0.027672183
-0.0039297007 -0.03001264 0.010544185 0.027592748 -0.003957186 -0.024189059 -0.024183393 0.025657304
-0.02186891 -0.0075375587 0.015307575 0.023893978 -0.0120819025 -0.02393529 0.03410119 0.007725116
-0.0004536882 0.0072846673 -0.025445886 -0.029321738 0.022706598 -0.017364437 0.0018477403 -0.030872514
-0.0024787784 0.029650971 0.020899385 0.0034142472 -0.029852146 0.0032580793 0.00721005 -0.004683219
0.035553843 0.031147882 0.011295766 0.007083427 0.024506893 0.025638416 0.015348706 -0.031028667
-0.018213665 0.011644095 0.0261974 0.020782564 -0.011698557 -0.017631635 -0.02059207 0.010150541
0.01568859 0.0046655834 -0.01807469 -0.0033303127 0.02179991 0.019150946 0.0208579 -0.006150527
0.023084715 0.024198107 0.02677492 0.008851808 0.018499926 -0.022734271 0.0063036345 -0.0022177175
-0.022643315 0.006454475 -0.03254795 -0.0135821905 -0.0053703953 -0.015209453 -0.024804622 -0.00074987486
0.0014403798 0.035761997 0.03406498 -0.00719304 0.008760016 0.019685354 -0.025122166 -0.013373842
0.022171266 0.026911572 0.034330517 -0.0275154 -0.020713413 -0.012487065 0.027176432 -0.028496895
-0.033038773 -0.013862086 -0.030027715 0.034407444 0.01067666 -0.028810898 -0.022667684 0.00032285228
00000000: 3580 d6bc a09c 4dbc f00b d1bb a03c f53b
00000010: dc71 13bd da34 51bc 10a6 373b cc8e bfbc
00000020: 3822 f1bb fcda b23c b4ca 063d 7082 66bb
00000030: 6468 a0bc dc8c 633c 844d 983c 88fe f2bc
00000040: f0d6 d83c 0858 82bb 50f7 d9bc e4e4 683c
00000050: 5aff 64bc 1ed6 2bbc b804 ee3c b0ca 5dbb
00000060: 7240 073d 302f 733b 6029 acba 00b9 a039
00000070: 335e f1bc b47d 253c 6672 0e3d c0d9 e7ba
00000080: aecd adbc 803e c0ba b006 063d e24a bc3c
00000090: 5008 12bb 683f ae3c 943f ff3c 74c6 393c
000000a0: f7a5 d0bc 90e6 0d3b d063 7a3c 9454 913c
000000b0: 247a c13c 6903 bebc e497 07bd c29f 9bbc
000000c0: cf67 a6bc cae0 05bd 38dc 363c a4dd e6bc
000000d0: 848e 8d3c 5245 39bc 8e35 c43c d64b dfbc
000000e0: c6b8 54bc 22f8 cd3c 0c78 223c e2b3 043d
000000f0: aae4 28bc e568 a3bc 323d 40bc 42f8 c5bc
00000100: 109c 8dbb 5830 8abb 6fed e0bc a03f f03c
00000110: e231 91bc a030 94bb 8958 dbbc a826 f93b
00000120: 40ab fe3c 39f0 81bc 29af 92bc 648e 103d
00000130: f0fa b8bc 608a b2bc a84a 583c 8880 be3c
00000140: 6c55 e3bc c6a9 013d 4749 89bc 2427 093d
00000150: f475 b1bc 5cdf a1bc 40d7 763a 402c f53c
00000160: 64c5 b63c a437 f6bb ea9d f3bc 8284 063d
00000170: 7cc8 e53c 4216 853c 41a3 88bc 34bb ccbb
00000180: b210 0b3d ceea 8e3c c214 cd3c e234 4abc
00000190: d0ca d93c c84a 113d 1cee e23c 7a54 b73c
000001a0: c212 113d cc11 843c 58aa a63b dca5 d23c
000001b0: c42b e53c dcf7 ef3c fc23 e93c 1a6d 0d3d
000001c0: 506c 033d 3cdb 163c b10b 80bc f877 05bd
000001d0: b061 9fbc d0f9 823c 5c19 a23c 746b fa3c
000001e0: aac7 3ebc 049e 0fbd 1096 cd3b 00bf dfbc
000001f0: 00fa acbc f474 203c b246 873c 1814 9cbc
00000200: 403a 57bc 6edd d1bc c0b5 233a 8c8f 6d3c
00000210: 5642 033d a0dd 833a 560e 8f3c 9e00 9cbc
00000220: d478 15bc 5814 9a3b 800b 7fba 2423 a3bb
00000230: b031 3a3c f0fc eabc 9069 05bb 56eb 5abc
00000240: 7c75 04bd a217 fbbc 78cb c43b deea 70bc
00000250: 90be a93b 6cc0 6bbc 7ca4 7c3c 9628 52bc
00000260: d4f1 123c 70aa f03c d3ad c5bc 0a45 24bc
00000270: 40a9 2dbc d479 563c 0e0b 083d c6b0 e2bc
00000280: b8c4 80bb 11dd f5bc 84c1 2c3c 300a e23c
00000290: 48ab 81bb 2228 c6bc 401c c6bc 442f d23c
000002a0: 6e26 b3bc a0fd f6bb a0cc 7a3c 4ebd c33c
000002b0: 2cf3 45bc f113 c4bc b0ad 0b3d f822 fd3b
000002c0: 00dd edb9 38b4 ee3b e473 d0bc 2434 f0bc
000002d0: 3003 ba3c dd3f 8ebc e02f f23a 5be8 fcbc
000002e0: 0073 22bb 98e6 f23c 3035 ab3c 90c1 5f3b
000002f0: 7d8c f4bc 8085 553b 4842 ec3b b075 99bb
00000300: e8a0 113d d829 ff3c e011 393c 181c e83b
00000310: aec2 c83c a807 d23c 2479 7b3c d52f febc
00000320: d334 95bc e0c6 3e3c ee9b d63c 3240 aa3c
00000330: 4eab 3fbc 3870 90bc b3b0 a8bc 744e 263c
00000340: 5c85 803c c0e1 983b 5f11 94bc 6041 5abb
00000350: ba95 b23c 72e2 9c3c 30de aa3c 5c8a c9bb
00000360: 281c bd3c 1c3b c63c 1457 db3c 2c07 113c
00000370: 288d 973c 393d babc b88e ce3b 2057 11bb
00000380: 797e b9bc 1080 d33b 0051 05bd d687 5ebc
00000390: 24fa afbb 1231 79bc 1033 cbbc 4093 44ba
000003a0: 20cb bc3a 2c7b 123d b887 0b3d 98b3 ebbb
000003b0: 2c86 0f3c 2e43 a13c 00cd cdbc f61d 5bbc
000003c0: 84a0 b53c a875 dc3c 289e 0c3d fa67 e1bc
000003d0: 2daf a9bc 8c96 4cbc 1ca1 de3c 5272 e9bc
000003e0: aa53 07bd ce1d 63bc affc f5bc d2ee 0c3d
000003f0: 28ed 2e3c d504 ecbc 94b1 b9bc 8044 a939

net.0.bias f4 [256]
-0.018636543 0.010733683 -0.01076503 -0.021990202 -0.02147116 0.0201877 -0.034355927 -0.027933706
0.0004746039 0.0065067015 0.016120976 0.01894293 -0.01612771 0.0028420943 -0.0077311713 0.019151866
0.0293191 -0.018763663 0.016667798 0.016478851 -0.034629025 0.036071822 -0.0046826038 0.022514012
-0.0166695 0.02761935 -0.031752717 -0.00026572496 0.00067977584 0.027429355 -0.031192144 0.00865684
0.025994563 -0.016836174 0.017183688 -0.01980448 -0.0013564879 -0.008051934 0.0069981315 -0.0012724436
-0.011865899 0.017803647 -0.00080930797 0.02194139 -0.0016692445 -0.033667218 0.024762519 0.04261212
-0.0061109704 -0.006267913 0.010976747 0.016816985 0.009367232 -0.028792754 -0.02662232 0.023123775
-0.006547789 -0.028862981 0.0017989911 0.0026524502 0.039272156 0.04149341 0.015449131 -0.0039830524
0.012962676 -0.025991263 0.035622165 -0.006764425 -0.011576412 -0.01677565 -0.017846448 -0.023595667
-0.014397068 0.027702918 0.027460957 0.0097616855 0.010648189 -0.03226015 -0.011198967 0.02573559
0.021690205 -0.0016611322 0.037526987 -0.034586124 -0.017897721 -0.03425928 -0.021919461 -0.012402641
-0.019089028 -0.010207087 -0.032358956 -0.016007863 -0.02947845 -0.01327873 0.0054595806 -0.014470905
0.0418866 -0.016007487 -0.013848847 0.0057000443 0.0059037474 -0.010837624 -0.0119254505 0.025548039
-0.03443535 -0.007032901 -0.004645369 0.011237897 0.01010396 -0.024916068 -0.027646938 -0.039833546
0.032305285 0.0068218634 0.010037686 -0.01758969 -0.011853268 0.0082173245 0.03257342 0.020184657
-0.014150575 -0.027434453 0.0083146915 -0.02769785 0.03456725 -0.0055084657 0.017715508 0.0028811097
0.0071047107 -0.04035236 0.020447068 0.00034392485 -0.0006026263 0.0085657975 -0.025523206 -0.011792333
0.0152309155 -0.024700828 -0.010550898 -0.029531432 -0.02190252 0.0050124936 -0.018641302 -0.024648082
0.0010241726 0.03154952 0.011595267 0.01610804 0.02873756 -0.0010571749 0.026851911 -0.0024359196
0.008385103 -0.01859826 6.6462904e-05 0.027770191 0.02604577 0.0141668245 -0.03697828 -0.03158348
0.0027806386 0.0041557155 -0.00193711 -0.03423986 -0.0074009933 0.013848983 0.027779045 0.018843098
0.0038589863 -0.004112604 0.03676296 0.025378596 0.023265453 -0.020097803 0.012715339 -0.009965617
0.008326056 -0.006602982 0.029047525 0.022945993 0.0033705048 -0.02040316 -0.010912545 -0.036056943
0.024568059 -0.0017358938 -0.00073750387 0.029933952 -0.0046765804 -0.02880204 0.031265154 -0.024676712
-0.034467086 0.004904638 -0.021493774 0.019183662 0.021286253 0.022418074 -0.019593308 0.017577522
-0.02994598 0.022767391 0.03452429 0.008434663 0.027523147 0.019147841 -0.017436804 -0.021446751
-0.010130588 0.03415334 -0.02366943 0.022943629 -0.023462445 0.022524266 -0.020572763 0.010631542
-0.0293975 0.00082631066 0.027134258 0.0068473383 -0.0059592975 0.0086449 0.024755642 0.02019838
-0.02368594 0.0018879536 -0.028244697 -0.022353027 0.028111205 -0.01497981 0.016290646 -0.015763339
-0.024126837 0.023896182 0.031063545 0.021308694 0.006846275 0.002845131 -0.0030170786 0.0028453101
0.009581069 -4.7829002e-05 0.032700792 0.03244997 -0.0014444275 -0.017338092 0.008699002 0.012569437
-0.026794419 -0.027703274 -0.024651397 -0.028317522 0.023905529 -0.007739537 -0.017388767 -0.016112022
00000000: aaab 98bc 54dc 2f3c cf5f 30bc cc24 b4bc
00000010: 49e4 afbc ad60 a53c cdb8 0cbd 3ad5 e4bc
00000020: 42d4 f839 2b36 d53b 2310 843c 342e 9b3c
00000030: 421e 84bc 6e42 3a3b c455 fdbb 60e4 9c3c
00000040: 9c2e f03c 41b6 99bc e88a 883c a8fe 863c
00000050: 2ad7 0dbd 0cc0 133d 8770 99bb 4e6f b83c
00000060: 7a8e 88bc fa41 e23c 230f 02bd 0051 8bb9
00000070: fc32 323a 87b3 e03c ab86 ffbc 6bd5 0d3c
00000080: 8df2 d43c 04ec 89bc cec4 8c3c 013d a2bc
00000090: 2ecc b1ba 42ec 03bc 9550 e53b 1fc8 a6ba
000000a0: 3069 42bc f4d8 913c bd27 54ba 6ebe b33c
000000b0: 8dca daba a3e6 09bd c4da ca3c 0c8a 2e3d
000000c0: 893e c8bb 1163 cdbb d0d7 333c c6c3 893c
000000d0: 0579 193c c8de ebbc 0d17 dabc 126e bd3c
000000e0: d68e d6bb 0f72 ecbc 20cc eb3a bbd4 2d3b
000000f0: d7db 203d fef4 293d 5a1e 7d3c 4484 82bb
00000100: 6761 543c a1eb d4bc 8ce8 113d 1ca8 ddbb
00000110: feaa 3dbc 176d 89bc b732 92bc b34b c1bc
00000120: aee1 6bbc 3bf1 e23c cdf5 e03c 7aef 1f3c
00000130: be75 2e3c 3823 04bd df7b 37bc 72d3 d23c
00000140: a8af b13c 59ba d9ba e6b5 193d 2eaa 0dbd
00000150: 3e9e 92bc 7553 0cbd 7190 b3bc 7234 4bbc
00000160: 9860 9cbc a03b 27bc d38a 04bd ec22 83bc
00000170: ca7c f1bc 088f 59bc 48e6 b23b 6017 6dbc
00000180: 4991 2b3d 2222 83bc 46e6 62bc 70c7 ba3b
00000190: 3974 c13b 4a90 31bc f762 43bc 1f4a d13c
000001a0: 150c 0dbd 4074 e6bb 2e38 98bb 281f 383c
000001b0: 148b 253c c81c ccbc d57b e2bc 8028 23bd
000001c0: 8c52 043d f089 df3b 1b75 243c 4118 90bc
000001d0: 3634 42bc f5a1 063c b56b 053d 4b5a a53c
000001e0: d0d7 67bc 38be e0bc 583a 083c 9ae6 e2bc
000001f0: 6496 0d3d 5c80 b4bb 1d20 913c 00d1 3c3b
00000200: a2ce e83b 8448 25bd 9c80 a73c d050 b439
00000210: 91f9 1dba 8f57 0c3c 0b16 d1bc a134 41bc
00000220: 178b 793c 6459 cabc acdd 2cbc e7eb f1bc
00000230: ea6c b3bc d83f a43b a5b5 98bc c6ea c9bc
00000240: 883d 863a 123a 013d 13fa 3d3c 02f5 833c
00000250: 086b eb3c e790 8aba 8af8 db3c f3a3 1fbb
00000260: ac61 093c 615b 98bc 0062 8b38 507e e33c
00000270: f05d d53c f81b 683c 8976 17bd ae5d 01bd
00000280: 603b 363b ab2c 883b a0e6 fdba 183f 0cbd
00000290: 0884 f2bb d8e6 623c e190 e33c d75c 9a3c
000002a0: 0ce7 7c3b 06c3 86bb c294 163d c6e6 cf3c
000002b0: 3197 be3c 26a4 a4bc ff53 503c d446 23bc
000002c0: 036a 083c d45d d8bb 13f5 ed3c 3cf9 bb3c
000002d0: b0e3 5c3b 8724 a7bc 88ca 32bc 72b0 13bd
000002e0: f442 c93c ee86 e3ba 0c55 41ba 0c38 f53c
000002f0: 003e 99bb 41f2 ebbc e40f 003d d126 cabc
00000300: 5c2d 0dbd 16b7 a03b b613 b0bc 0e27 9d3c
00000310: 8260 ae3c 1ca6 b73c 2582 a0bc bcfe 8f3c
00000320: 4651 f5bc ae82 ba3c 5869 0d3d 8a31 0a3c
00000330: 3978 e13c efdb 9c3c a1d7 8ebc 19b1 afbc
00000340: c4fa 25bc 5fe4 0b3d 64e6 c1bc 47f4 bb3c
00000350: 5034 c0bc cf84 b83c 3688 a8bc eb2f 2e3c
00000360: 07d3 f0bc c59c 583a aa48 de3c a35f e03b
00000370: 3646 c3bb 57a3 0d3c 58cc ca3c 1377 a53c
00000380: 0409 c2bc 3675 f73a 6c61 e7bc b21d b7bc
00000390: 7849 e63c e16d 75bc f673 853c 1e22 81bc
000003a0: a5a5 c5bc edc1 c33c fa78 fe3c 928f ae3c
000003b0: b856 e03b 6175 3a3b 2eba 45bb 6278 3a3b
000003c0: ebf9 1c3c 009c 48b8 44f1 053d 42ea 043d
000003d0: f252 bdba 9d08 8ebc 4286 0e3c 0af0 4d3c
000003e0: f87f dbbc faf1 e2bc baf1 c9bc 26fa e7bc
000003f0: 87d5 c33c f19b fdbb e372 8ebc 5cfd 83bc

net.3.weight f4 [1, 256]
-0.018490933 -0.020725735 0.066327184 -0.062362134 -0.023427581 0.054956757 0.020023827 0.080221236
-0.02784007 0.019359767 -0.038926497 -0.044753715 0.035521835 0.044181567 0.03087944 -0.02100902
0.055679906 0.002926605 0.005457461 -0.04625009 0.05385766 0.039657913 0.050707284 0.045413278
0.00063187885 0.0021685837 -0.02240118 -0.05809333 0.029006282 0.07627901 0.010795742 0.055648725
0.031446714 -0.04197962 0.07432821 -0.035925396 0.048664074 -0.048328977 0.02297814 -0.033390515
0.06729661 -0.04709219 -0.022627056 0.0029323038 0.050949037 0.027320338 -0.02735475 -0.07339856
0.025877303 0.023687335 0.028920718 -0.0025809775 -0.061766785 0.044581935 0.04846459 -0.07586392
-0.038122293 0.0494534 -0.04409477 -0.023496399 -0.039706584 -0.016426092 -0.06707621 -0.03770292
0.06332328 0.0565771 0.042068794 -0.056575462 -0.0010136393 0.052976824 -0.056084078 -0.015526652
-0.058311023 -0.056763947 0.06693361 -0.039878942 0.023350615 -0.028800637 0.061104313 0.047757518
0.04796719 -0.05712026 0.034941476 0.022419792 -0.01980222 -0.00064472604 0.03272357 -0.04796224
0.033593953 0.024716139 0.0061608255 0.019331407 0.009033494 -0.036334578 0.052631292 0.008702628
-0.03661898 0.08164327 0.057842724 -0.0042531937 -0.07035927 -0.035765722 -0.048788607 0.035345092
0.05776982 0.0075196177 -0.041536473 -0.051303186 -0.00034413487 -0.01984924 -0.0556205 -0.0345003
0.036157187 0.06082339 -0.033993747 -0.036223534 -0.05195126 0.07134993 -0.04150423 0.044405617
-0.032033402 -0.044331588 -0.04537008 -0.049035136 -0.053671766 0.06823694 0.025517708 0.016345568
-0.07197736 0.04096208 -0.056961708 -0.02165868 0.049473323 0.038672976 -0.031581827 -0.0047689388
-0.040209845 0.040389426 -0.031569004 0.036922902 0.047420405 0.07410725 0.029834896 -0.024501218
-0.043972205 -0.03492185 0.078420304 -0.01811836 -0.02153615 0.013237455 -0.0588351 0.07819691
0.047772005 0.033437487 0.057970367 0.055340156 -0.04401259 0.022993967 0.054193962 0.007407278
0.031821325 -0.013710421 0.02704221 -0.036805823 0.061835393 -0.021865562 -0.022894245 0.0071027945
0.0600057 0.048220765 0.051243935 -0.039165776 -0.07211195 -0.010354338 0.054822586 -0.04670464
-0.0024342777 0.034699574 -0.061223492 -0.07532366 -0.0054808706 0.06933442 0.025870519 -0.04482901
-0.030788226 -0.0076610376 0.03236516 0.011633299 0.009918474 0.0009237791 -0.070230685 0.04606962
0.029259205 -0.045654427 -0.0056740567 0.008993857 0.05479425 0.05610069 0.07639641 -0.04520544
0.0341146 -0.04613436 0.07047446 0.07252467 -0.020884369 0.023947254 0.047367305 -0.07434729
-0.08004132 0.029355003 0.016298987 0.008508115 -0.029847426 -0.052629195 0.0527438 -0.06939698
0.029803617 0.054721963 -0.053781945 -0.0292296 0.068441436 -0.04978043 -0.072584346 0.026058797
0.04821371 0.035535775 0.054494552 -0.00837525 0.028877784 0.040279076 -0.06050612 -0.014602707
0.009878364 0.053112227 -0.06350573 -0.021172807 0.025525607 -0.03592129 0.02224468 0.07895582
-0.034239743 -0.05553721 -0.036537666 -0.03497582 0.022027325 0.0551422 0.02939121 0.06634858
0.023634233 0.06324525 -0.049195454 0.07946491 -0.032220516 -0.037442308 -0.0446857 0.052681003
00000000: 4c7a 97bc 04c9 a9bc 8cd6 873d 706f 7fbd
00000010: 33eb bfbc 561a 613d 0209 a43c 084b a43d
00000020: dc10 e4bc 6098 9e3c 6471 1fbd ac4f 37bd
00000030: 587f 113d bbf7 343d e1f6 fc3c 1c1b acbc
00000040: 9d10 643d 49cc 3f3b 80d4 b23b bc70 3dbd
00000050: da99 5c3d 5670 223d 71b2 4f3d 4603 3a3d
00000060: aca4 253a cc1e 0e3b ae82 b7bc 46f3 6dbd
00000070: 959e ed3c 2b38 9c3d a0e0 303c ebef 633d
00000080: 45ce 003d d2f2 2bbd 6339 983d 8226 13bd
00000090: fb53 473d 9bf4 45bd a73c bc3c 7ec4 08bd
000000a0: ced2 893d bde3 40bd 605c b9bc e52b 403b
000000b0: f0af 503d e7ce df3c 1217 e0bc fc51 96bd
000000c0: a3fc d33c f10b c23c 24eb ec3c 9e25 29bb
000000d0: 2bff 7cbd 8c9b 363d ce82 463d 8b5e 9bbd
000000e0: 1f26 1cbd a68f 4a3d b89c 34bd 857b c0bc
000000f0: 5fa3 22bd 0390 86bc 415f 89bd 616e 1abd
00000100: a3af 813d 64bd 673d 5450 2c3d acbb 67bd
00000110: 17dc 84ba 3afe 583d 6bb8 65bd 8063 7ebc
00000120: 8ad7 6ebd 5081 68bd 7d14 893d 1a58 23bd
00000130: ca49 bf3c 50ef ebbc 8448 7a3d 639d 433d
00000140: 3f79 443d eff6 69bd cb1e 0f3d b6a9 b73c
00000150: 4438 a2bc d502 29ba 2609 063d 0e74 44bd
00000160: d099 093d 8079 ca3c c0e0 c93b e65c 9e3c
00000170: 3801 143c 91d3 14bd e993 573d 7895 0e3c
00000180: c9fd 15bd 9634 a73d 7eec 6c3d 605e 8bbb
00000190: 8518 90bd 147f 12bd 90d6 47bd 04c6 103d
000001a0: 0ca0 6c3d 2067 f63b 2622 2abd 4a23 52bd
000001b0: 006d b4b9 e09a a2bc 52d2 63bd 3050 0dbd
000001c0: 8f19 143d f221 793d 073d 0bbd 215f 14bd
000001d0: d8ca 54bd e91f 923d 5700 2abd aae2 353d
000001e0: 7535 03bd 0a95 35bd fad5 39bd 11d9 48bd
000001f0: edd6 5bbd cfbf 8b3d 830a d13c 24e7 853c
00000200: de68 93bd dbc7 273d ae50 69bd 8b6d b1bc
00000210: 8aa4 4a3d 8e67 1e3d f25b 01bd c244 9cbb
00000220: 14b3 24bd 626f 253d 804e 01bd 783c 173d
00000230: e63b 423d 8bc5 973d 5068 f43c c7b6 c8bc
00000240: 331c 34bd 370a 0fbd d39a a03d f46c 94bc
00000250: 946c b0bc e9e1 583c 13fd 70bd b425 a03d
00000260: 94ac 433d bff5 083d 5672 6d3d 5cac 623d
00000270: 8c46 34bd d85d bc3c 7dfa 5d3d c0b8 f23b
00000280: 1457 023d aca1 60bc a087 dd3c b4c1 16bd
00000290: 1c47 7d3d 681f b3bc b68c bbbc 8fbe e83b
000002a0: 89c8 753d 2383 453d 29e5 513d 4b6c 20bd
000002b0: 6eaf 93bd 3ea5 29bc a68d 603d 5d4d 3fbd
000002c0: 6788 1fbb 2421 0e3d 7cc5 7abd 4b43 9abd
000002d0: e098 b3bb 34ff 8d3d 69ee d33c a09e 37bd
000002e0: 9737 fcbc 7109 fbbb 5491 043d 9899 3e3c
000002f0: 1881 223c c429 723a 1bd5 8fbd 7fb3 3c3d
00000300: 00b1 ef3c 2300 3bbd 70ed b9bb f85a 133c
00000310: ef6f 603d d6c9 653d b975 9c3d 5729 39bd
00000320: c0bb 0b3d 62f7 3cbd ea54 903d d087 943d
00000330: b215 abbc 082d c43c 3804 423d 6443 98bd
00000340: b4ec a3bd e779 f03c 7485 853c 9f65 0b3c
00000350: 9782 f4bc b691 57bd e209 583d 0120 8ebd
00000360: b726 f43c 2324 603d 754a 5cbd ea72 efbc
00000370: 062b 8c3d 90e6 4bbd 1aa7 94bd 4279 d53c
00000380: bd7b 453d f68d 113d ae35 5f3d 5838 09bc
00000390: 1a91 ec3c acfb 243d 44d5 77bd 3140 6fbc
000003a0: ddd8 213c 358c 593d 4b0f 82bd 9872 adbc
000003b0: 141b d13c 3422 13bd 7a3a b63c 97b3 a13d
000003c0: f93e 0cbd fc7a 63bd 85a8 15bd ce42 0fbd
000003d0: a672 b43c cadc 613d d6c5 f03c c4e1 873d
000003e0: 949c c13c ba86 813d 2c81 49bd 80be a23d
000003f0: a9f9 03bd 1b5d 19bd 5a08 37bd 09c8 573d
